vgg16-fc1k-sm.
MODEL NAME: vgg16-fc1k-sm..h5
JSON FILE: ./vgg16-fc1k-sm.arch.json
WEIGHTS FILE: ./vgg16-fc1k-sm.weights.h5
EPOCHS: 12
layers to train:-5
DATE:2018-10-11 18:53
Image Size:224
BATCH SIZE:100
Number of classes:2
KERAS model:VGG16
TOP FCN:excluded
Input Shape:224x224x3
_________________________________________________________________

Layer (type)                 Output Shape              Param #   

=================================================================

input_1 (InputLayer)         (None, 224, 224, 3)       0         

_________________________________________________________________

block1_conv1 (Conv2D)        (None, 224, 224, 64)      1792      

_________________________________________________________________

block1_conv2 (Conv2D)        (None, 224, 224, 64)      36928     

_________________________________________________________________

block1_pool (MaxPooling2D)   (None, 112, 112, 64)      0         

_________________________________________________________________

block2_conv1 (Conv2D)        (None, 112, 112, 128)     73856     

_________________________________________________________________

block2_conv2 (Conv2D)        (None, 112, 112, 128)     147584    

_________________________________________________________________

block2_pool (MaxPooling2D)   (None, 56, 56, 128)       0         

_________________________________________________________________

block3_conv1 (Conv2D)        (None, 56, 56, 256)       295168    

_________________________________________________________________

block3_conv2 (Conv2D)        (None, 56, 56, 256)       590080    

_________________________________________________________________

block3_conv3 (Conv2D)        (None, 56, 56, 256)       590080    

_________________________________________________________________

block3_pool (MaxPooling2D)   (None, 28, 28, 256)       0         

_________________________________________________________________

block4_conv1 (Conv2D)        (None, 28, 28, 512)       1180160   

_________________________________________________________________

block4_conv2 (Conv2D)        (None, 28, 28, 512)       2359808   

_________________________________________________________________

block4_conv3 (Conv2D)        (None, 28, 28, 512)       2359808   

_________________________________________________________________

block4_pool (MaxPooling2D)   (None, 14, 14, 512)       0         

_________________________________________________________________

block5_conv1 (Conv2D)        (None, 14, 14, 512)       2359808   

_________________________________________________________________

block5_conv2 (Conv2D)        (None, 14, 14, 512)       2359808   

_________________________________________________________________

block5_conv3 (Conv2D)        (None, 14, 14, 512)       2359808   

_________________________________________________________________

block5_pool (MaxPooling2D)   (None, 7, 7, 512)         0         

_________________________________________________________________

flatten_1 (Flatten)          (None, 25088)             0         

_________________________________________________________________

fc1 (Dense)                  (None, 4096)              102764544 

_________________________________________________________________

dropout_1 (Dropout)          (None, 4096)              0         

_________________________________________________________________

fc2 (Dense)                  (None, 4096)              16781312  

_________________________________________________________________

dropout_2 (Dropout)          (None, 4096)              0         

_________________________________________________________________

dense_1 (Dense)              (None, 2)                 8194      

=================================================================

Total params: 134,268,738

Trainable params: 119,554,050

Non-trainable params: 14,714,688

_________________________________________________________________

Data Aug Train:shear_range=0.2,horizontal_flip=True,vertical_flip=True,fill_mode='nearest',zoom_range=0.2
Data Aug Valid:
Compilationoptimizer='rmsprop',    loss='categorical_crossentropy', metrics=['accuracy']
…
